data/model.pth (torch, 23275 bytes, 5 tensors)

net.0.weight f4 [64, 60]
000000 49 04 a2 3d 65 7a b7 3d 39 a9 a7 bd 5f d8 97 3d
       0.079109736 0.08958892 -0.081865735 0.074143164
000010 41 62 de bd 47 51 e1 3d f2 b8 bf 3e b2 11 1d bf
       -0.10858584 0.110018305 0.3744579 -0.61355126
000020 d9 88 20 be 62 2d e1 be 01 bd f4 3e 98 16 03 3f
       -0.15677203 -0.43979937 0.4780045 0.5120635
000030 62 48 5c be a0 de e5 3d e3 9e d4 3d 5b 3e 87 3e
       -0.21511987 0.11224103 0.10381868 0.2641476
000040 84 fc 0f 3c ed eb 9f be d3 58 75 be 52 32 f8 3d
       0.008788232 -0.31234685 -0.23959665 0.12118973
000050 6c af 32 3f 23 a1 94 3e bf a2 a9 bd 89 00 95 bd
       0.6979892 0.29029188 -0.082829945 -0.07275493
000060 08 cb 1f 3e c2 c6 c8 bd 59 f4 9b 3a a3 27 a9 bd
       0.15604794 -0.09803535 0.0011898383 -0.08259513
000070 de 0d e5 3d 96 70 75 be 8a c5 fb 3d 12 d2 67 be
       0.111842856 -0.2396873 0.12293537 -0.22638729
000080 ce c8 cd 3d 57 9d 06 bf 7c ae 61 bc f9 52 13 bf
       0.10048066 -0.5258383 -0.0137745105 -0.5754848
000090 2a 57 ef 3e aa 21 07 3e e1 e5 00 3f d7 01 10 bf
       0.46746188 0.13196436 0.5035077 -0.5625281
0000a0 53 93 8f 3c 3b f7 33 be 01 c9 86 be 4e 45 c5 3e
       0.017526304 -0.1757478 -0.2632523 0.38529438
0000b0 d2 f2 6a bd bd c1 d1 3e fa cb a3 3d f2 2b 11 bf
       -0.057360478 0.40968123 0.0799789 -0.5670768
0000c0 bf 94 5a bf b9 dc b9 be 56 db aa 3e 7e 53 28 3f
       -0.8538322 -0.3630121 0.33370465 0.657524
0000d0 67 e3 dc 3d 6b fa a7 3d da 19 47 bd 9a c1 d1 be
       0.10785561 0.0820206 -0.04860864 -0.4096802
0000e0 d2 ac c8 3d ea 87 45 3e 8b 62 66 bd 7a cd 20 be
       0.09798588 0.19290128 -0.05624632 -0.15703383
0000f0 a0 32 d8 3b f7 31 33 be b2 c5 65 be a7 4c 6e 3d
       0.006597832 -0.17499529 -0.22438696 0.05817857
000100 e9 41 b3 3f d3 ca 80 bf cd f4 1c 3e 91 7b 32 bf
       1.4004489 -1.0061897 0.15327759 -0.697198
000110 78 a2 22 3f b4 9b 90 be f1 09 88 3f 06 9d 88 3e
       0.6352916 -0.28243792 1.0628034 0.266823
000120 2d 57 2d 3e 13 46 f7 3e 9a 62 2a 3b 16 c8 e0 be
       0.16927786 0.4829565 0.0025998713 -0.43902653
000130 5f 35 cf be c4 7e 12 be 75 8e 17 be 4d 51 7f 3e
       -0.40470406 -0.1430617 -0.14800437 0.24933358
000140 11 e3 f2 be 13 c0 db 3e 39 10 df be 27 79 8b be
       -0.47438863 0.42919978 -0.43567064 -0.2724087
000150 a8 1e 91 3d f7 a1 18 bf f7 2d 1f be 0e 7f af be
       0.07085925 -0.5962214 -0.15544878 -0.34276623
000160 5e 36 07 be 70 b0 62 3e e4 64 35 3f 60 3b 50 be
       -0.13204333 0.22137618 0.7085707 -0.2033515
000170 71 d3 f8 3c 10 b0 f6 be b1 ae 85 bf a2 02 95 3f
       0.03037426 -0.481812 -1.0443937 1.1641428
000180 6d 5f c7 bd 30 c6 bc bd 2d 60 9f be 89 1c e7 3b
       -0.09734998 -0.09217489 -0.31128064 0.007052962
000190 3b 67 13 bf 74 5b 44 be 13 c3 96 3c 2b 6a 5f 3d
       -0.5757939 -0.19175512 0.018403566 0.05454461
0001a0 4e 71 23 bf 42 e7 b3 bd cd 3e ca 3e 0c 02 8b 3e
       -0.63844764 -0.08784343 0.39501038 0.2715
0001b0 a5 60 93 3e 52 6e be 3e 7d 9d b8 bd e0 cd e1 bd
       0.2878467 0.37193543 -0.090144135 -0.11025596
0001c0 f5 1a 07 3f 7e fa 9e 3e 5a 71 29 bd ee 6d 97 be
       0.5277551 0.31050485 -0.041367866 -0.29576057
0001d0 b1 6e c1 bc fe fe 8d bb e2 bc a9 3e 0b c6 24 be
       -0.023612352 -0.004333376 0.3315192 -0.16091172
0001e0 47 9a 8e 3e 84 b1 3e 3d 0b 97 67 be 2e c1 85 be
       0.2785208 0.04655601 -0.22616212 -0.26123947
0001f0 21 7a b2 be 5d 55 26 bf 24 39 bd 3c 20 24 04 3e
       -0.34858802 -0.64974004 0.023098536 0.12904406
000200 52 75 b6 3e a1 a5 3f bd 67 d4 af be 41 f1 c7 bc
       0.35636383 -0.046788815 -0.34341738 -0.024407031
000210 8a 92 52 be 7b ae 53 3f fa d0 e3 3e a3 70 eb bb
       -0.20563713 0.8268811 0.44495374 -0.007185058
000220 1c 3e 2e bc 9d ec 95 3d 50 80 8b be 54 45 7c be
       -0.010634925 0.07320521 -0.27246332 -0.24635822
000230 2b d7 2c be e4 77 12 3e 57 15 f4 be e5 ee 39 3f
       -0.16878955 0.14303547 -0.4767253 0.7263015
000240 d2 42 15 3d d5 86 0c be 82 43 19 bf 31 30 53 3e
       0.036440678 -0.1372331 -0.59868634 0.20623852
000250 d6 ef f8 be c3 9e 8f 3d c1 69 c3 3e cf 3b ce 3d
       -0.4862048 0.07012703 0.3816662 0.10070001
000260 ee 8b 71 3e 4d 76 3e be 30 6e 38 3f 5b 67 f9 3d
       0.23588535 -0.18599816 0.7204313 0.121779166
000270 65 19 2c 3f 0a 5b 83 be bb ac 40 bf 93 3c fb 3e
       0.6722625 -0.25655395 -0.75263566 0.49069652
000280 b9 1e 86 3e 4e 07 d8 bd 4c 74 e7 be 82 37 13 bf
       0.26195315 -0.10548268 -0.45205915 -0.57506573
000290 b3 69 97 3e 16 ae 58 be 8f 8d a2 be 7a 06 8b 3e
       0.2957283 -0.21160159 -0.31748626 0.2715338
0002a0 25 c0 ad bd 46 c2 1a bf 82 53 8f be 1f c2 b9 3e
       -0.08483914 -0.6045269 -0.279934 0.36280915
0002b0 f2 e8 a0 3e 11 f9 ab bd 33 11 36 be 1d 0b dc 3e
       0.31427723 -0.08397115 -0.17779998 0.4297723
0002c0 4f 2b 9f bc a9 43 4a 3d 4e 7a eb 3e 25 8a f5 be
       -0.01942983 0.049380932 0.4599175 -0.47956958
0002d0 c8 85 1e 3e f4 d8 99 bd d3 ae fa 3c 48 32 09 3d
       0.15480721 -0.07512084 0.03060094 0.033495218
0002e0 9d ff fe be aa fc ab be 4f 54 9d be 76 ff 81 3e
       -0.49804392 -0.33591205 -0.30728385 0.25390214
0002f0 98 48 a2 3e 75 51 9e bd 2a 21 09 3f 7a 79 1e 3d
       0.3169601 -0.077303804 0.5356623 0.038690068
000300 78 96 06 3f da 25 74 bd ff 5a e2 be c6 cf 6b be
       0.5257335 -0.05960641 -0.4421005 -0.23028478
000310 4f 78 e4 be 41 dd ba 3e 57 1a 2b bf a4 79 ba be
       -0.44623038 0.36496928 -0.66837066 -0.3642093
000320 ec c3 ad 3e b9 de 24 3f 82 df 9d be f8 fb 98 be
       0.3393854 0.6440235 -0.30834585 -0.29879737
000330 50 68 87 be a2 6a 43 3f 25 1c ff 3e 68 ba b6 bd
       -0.26446772 0.76334584 0.4982616 -0.08922273
000340 a2 c8 42 3f 96 11 bc 3e a8 3b 01 3d 43 2e 9c 3f
       0.7608739 0.36732167 0.031551033 1.2201618
000350 cd ab 35 bc 86 36 90 3e 05 0b 16 be 44 62 1d be
       -0.011088324 0.28166598 -0.14652641 -0.15369517
000360 01 d7 82 be 9a 8d 14 be 6d 0f ce be 03 ed b2 3e
       -0.2555466 -0.14507142 -0.40246144 0.3494645
000370 97 9c 07 be 64 3e b0 be 83 45 90 3e d4 e6 d8 be
       -0.13243328 -0.344226 0.28178033 -0.42363608
000380 99 32 36 bd fe d3 c9 be 00 c2 e7 bd 0f f7 be 3e
       -0.044481847 -0.3941955 -0.113162994 0.37297866
000390 34 39 25 3e e9 6e ca be 9f a7 14 be 6e 14 34 bd
       0.16135103 -0.39537743 -0.14517067 -0.043964796
0003a0 85 98 2e be 37 0e ec be 20 ba a0 bd be 8c be 3c
       -0.17050369 -0.46104595 -0.078480005 0.02326047
0003b0 65 87 22 3e ef bf 05 bd 35 7b 71 be a6 c0 32 bf
       0.15871961 -0.032653745 -0.23582156 -0.6982521
0003c0 5c 28 f3 3e 90 61 8e bf d2 a8 07 3f 78 9d 98 be
       0.4749173 -1.1123524 0.52991974 -0.2980764
0003d0 02 df 29 3f fc 51 e6 3e 19 23 67 3d f9 e6 13 bf
       0.6635591 0.44984424 0.056429956 -0.5777431
0003e0 b2 34 d6 bd ee 67 83 3c 63 7b 53 3f b7 96 c0 be
       -0.104592696 0.016040768 0.8261015 -0.37614986
0003f0 c8 3b a8 be db 6a 45 bf e7 5a 82 3d 91 bd 59 3f
       -0.3285811 -0.77116174 0.063649945 0.8505488

net.0.bias f4 [64]
000000 80 b6 94 3f e9 b6 da 3f 5f fb 0a 40 5d 3c 8a 3f
       1.1618195 1.708707 2.1715925 1.0799671
000010 f3 f5 f5 3f d2 63 89 3f 15 1e d3 3f 51 cc e8 3f
       1.9215683 1.0733588 1.6493555 1.8187352
000020 83 ef bf 3f c7 e9 89 3f f1 bb d4 3f c5 70 90 3f
       1.4994968 1.0774468 1.6619855 1.1284415
000030 48 2f ec 3f 3f fa a4 3f db 29 df 3f 15 6e 12 40
       1.8451929 1.2888869 1.7434648 2.2879689
000040 e3 04 ea 3f 63 98 44 3f ed 9b bf 3f c5 f2 89 3f
       1.8282741 0.76795024 1.496946 1.0777212
000050 68 01 8b 3f d8 63 f8 3f 26 c0 90 3f 83 f2 9f 3f
       1.0859804 1.940547 1.1308639 1.2495884
000060 ed 07 d5 3f 82 62 98 3f 79 e1 6d 3f 12 0b b5 3f
       1.6643044 1.1905062 0.9292217 1.4144003
000070 11 f5 e4 3f 03 0a 93 3f 29 3d f1 3f 99 85 95 3f
       1.7887288 1.148743 1.884679 1.1681396
000080 63 2e 9c 3f d2 5b 96 3f bb 1e c3 3f 16 17 dc 3f
       1.2201656 1.1746771 1.5243753 1.7194545
000090 c8 43 2f 3f 5b 56 9a 3f f2 78 9b 3f ec ee 14 40
       0.684628 1.2057604 1.2146285 2.3270826
0000a0 3b 7f c5 3f 70 32 b8 3f 26 1a e1 3f 03 ec bc 3f
       1.5429453 1.4390392 1.7586105 1.4759525
0000b0 69 10 a5 3f 56 eb e6 3e e0 be c9 3f 63 b7 fa 3f
       1.2895633 0.45101422 1.5761375 1.9587215
0000c0 66 66 d6 3f 92 19 e6 3f 48 d0 ad 3f 14 1c 31 40
       1.675 1.7976553 1.3579187 2.7673388
0000d0 5a 74 92 3f 23 32 64 3f e0 30 1e 3f 65 c3 7f 3f
       1.1441758 0.89139 0.6179333 0.99907523
0000e0 c8 a8 d7 3f e9 1b cb 3f 72 72 3a 3f 4c e9 89 3f
       1.6848383 1.5867893 0.7283088 1.0774322
0000f0 43 be 43 3f 55 ed 4a 3f 41 a9 78 3f ed d0 f6 3f
       0.7646219 0.7926839 0.9713326 1.9282509

net.2.weight f4 [20, 64]
000000 4b 6d fe 3d 86 49 d2 ba 4e 9a 57 bc e3 af 7e bc
       0.1242319 -0.001604364 -0.013159348 -0.015544864
000010 cd a5 8e 3b b6 6c 3c 3d db d9 80 3d 98 5d 05 3e
       0.004353261 0.046002112 0.06291553 0.13023984
000020 0a 7a 6d bd ef 4a 2c bd a2 00 5f 3c 1e 8a ff 3d
       -0.057977714 -0.04206365 0.013610991 0.12477516
000030 c2 d6 e7 3b 51 4a 8f 3d 96 55 0f 3d 7c a1 a8 3d
       0.0070751617 0.069965966 0.03499373 0.08233926
000040 60 56 b9 bd ae f6 90 bd c8 f1 44 bc b1 4d 8e bc
       -0.09049678 -0.070783004 -0.012020536 -0.01737103
000050 ef 34 e8 3d b3 e1 f4 3d 72 cd 31 3d 13 cb 9a bd
       0.11338221 0.11957111 0.04340882 -0.075582646
000060 c3 00 6a 3c 94 9f 0a bc 7c e6 28 bd b4 ed 69 3d
       0.014282408 -0.008460898 -0.041235432 0.057111457
000070 a2 79 01 bd b7 21 e5 3c 48 39 81 bd 97 3c ed bc
       -0.03161014 0.027970178 -0.06309754 -0.028959556
000080 64 79 78 bd c9 6c 48 3d 65 2e d7 3d 4f af 13 3e
       -0.060662642 0.04893187 0.10506896 0.14422344
000090 50 7a cd 3d 01 23 71 3d 1c 9a f6 3d 80 18 39 3c
       0.10033095 0.058871273 0.12041113 0.011297345
0000a0 ff 0d 32 3d 5f cc f4 3d 88 ce eb 3d 24 01 19 3d
       0.04347038 0.11953043 0.11514002 0.037354603
0000b0 80 f7 9a 3d 8a 7d 64 3d bf 71 13 3e 6b 7f 67 bd
       0.07566738 0.055783786 0.1439886 -0.056518
0000c0 b4 61 b8 3d dc 5e 30 3c 37 e3 16 3d 31 37 98 3d
       0.090030104 0.010764804 0.036837783 0.07432402
0000d0 62 84 9c bb 8f f1 15 bd ae 24 e6 3d 24 26 d7 3c
       -0.0047765234 -0.03660732 0.11237465 0.026263304
0000e0 0d 38 8a bd ec 9c c5 bd ae 5e e7 bd 6d 7f 1c bd
       -0.06748972 -0.09649071 -0.112973556 -0.03820746
0000f0 8f 53 9c bd fa cc e6 3d 2a 6a d6 3d 9f 38 43 3b
       -0.07633125 0.11269565 0.10469468 0.0029788387
000100 19 13 ad bd bf 76 f2 bd b0 1e ea bd 95 e7 c8 bd
       -0.08450908 -0.11839055 -0.114316344 -0.09809796
000110 51 3a cd bc 1f 0a b5 3c 4f 7d c8 3d 8d dd 9e bd
       -0.025052221 0.022099553 0.09789526 -0.07757101
000120 46 04 c1 bc dd f2 29 bd c4 88 3f bd 39 7f 4a 3c
       -0.023561608 -0.041491378 -0.04676129 0.012359434
000130 f3 31 19 3d c2 d9 cf 3c 1b c5 fa bc cd a8 62 bd
       0.03740115 0.02537239 -0.030611565 -0.055336762
000140 fc ad 8d 3d 0c 08 be 3d 26 fb c1 3d 39 ff 5a 3d
       0.069179505 0.092788786 0.09471731 0.053466056
000150 17 db 8b bc 2c 06 f3 3b de ca b7 3d 08 65 82 bb
       -0.017072244 0.007416507 0.08974241 -0.003979329
000160 68 01 cb bd 99 e4 1a 3d 93 05 98 bc 2b 50 3e 3d
       -0.099123776 0.037815664 -0.018557345 0.046463173
000170 8e dc 7b 3d e4 c8 8c 3c aa 97 21 bd 62 27 12 3d
       0.061489634 0.017185636 -0.03945128 0.03568209
000180 40 c7 60 3d c6 34 b4 bd f2 48 34 3d 9d b5 c6 3d
       0.05487752 -0.08799128 0.04401488 0.09702609
000190 c5 c7 00 be c2 92 22 3d 65 89 9a bc fb c8 66 3c
       -0.12576206 0.03969074 -0.018864343 0.014086003
0001a0 55 62 27 3d 1d 9b 6b bd 54 f1 3e 3c e2 a4 c3 bd
       0.04086526 -0.057520974 0.011654217 -0.09552933
0001b0 ca 97 ee bd 14 2a da bc b4 53 5a bc 7f f4 e2 bd
       -0.11650045 -0.026631393 -0.01332562 -0.1108179
0001c0 a7 1c 90 bd f8 c0 19 3d 1e 6e df bd a6 64 ca bc
       -0.07036715 0.037537545 -0.10909675 -0.024706196
0001d0 0e 34 3a bd be ed 18 bc 1c 6b ff bc 1e 38 38 3b
       -0.0454598 -0.009334026 -0.031179003 0.002810962
0001e0 41 b3 a3 3c 38 4e 30 3d 1d 06 5d bc f1 a4 1f bd
       0.019982936 0.043043345 -0.013490227 -0.03897566
0001f0 0a 59 ac bd 49 ec 26 bd 38 47 39 bd 03 f5 db bd
       -0.0841542 -0.040752683 -0.045233935 -0.10740092
000200 7e 52 29 3a 79 8b bf bd 49 21 97 3d ba 69 0c 3e
       0.00064591307 -0.09352774 0.073793955 0.13712206
000210 38 de 95 bd c6 1e f7 3c 34 c7 02 bd da 64 bd 3b
       -0.073177755 0.030166041 -0.031928256 0.0057798447
000220 a2 91 18 3e a7 fd 0a bd ec f5 ab bc 10 cc 06 bc
       0.14899305 -0.033933308 -0.020991288 -0.008227363
000230 9c 2a fb 3d 56 1d 91 3d 7b 70 34 bd 72 b8 af 3d
       0.122639865 0.070856735 -0.044052582 0.08580102
000240 f7 33 02 3e ab 44 58 bd c2 11 a3 bd 74 53 2f bd
       0.12715136 -0.052799862 -0.079623714 -0.042804196
000250 a8 31 89 bd ab 19 a2 bd 61 13 07 3e b5 a3 2f 3c
       -0.06698924 -0.07915052 0.13190986 0.010720183
000260 01 62 37 3d 3a b6 40 bc ac cb a9 3d e0 19 95 3d
       0.0447712 -0.011762196 0.082908005 0.07280326
000270 ce 7c 06 3e 88 f7 c9 3d 46 9a c4 3d 69 1a ed bd
       0.13133547 0.09861666 0.09599738 -0.11577303
000280 ef ca 1e 3d 0f 25 34 3d 34 31 a2 3d c4 97 f0 bd
       0.03876775 0.043980654 0.07919541 -0.11747697
000290 00 c9 ba 3d a5 cb 9d bd 91 01 e8 3b 46 ab 00 3e
       0.09120369 -0.07704858 0.007080265 0.12565336
0002a0 b2 a5 8c 3c 62 90 8c bc db 1b a0 bd 03 e3 00 be
       0.017168853 -0.01715869 -0.07817813 -0.12586598
0002b0 31 13 1a be 15 02 36 bc c6 8a 10 3e 12 5f 6f bc
       -0.15046383 -0.011108895 0.14115438 -0.014610069
0002c0 3b 61 97 3d 94 d0 9d 3d e0 90 cf 3d 03 84 2f bd
       0.07391592 0.07705799 0.101350546 -0.042850506
0002d0 9e b8 ae bd cf 35 c9 3c 9a 2f b2 3d 35 66 b5 3d
       -0.08531307 0.02456179 0.087004855 0.08857385
0002e0 95 c0 8a bd 17 42 8a bd 52 12 d4 3d 01 35 a0 3d
       -0.06775013 -0.06750887 0.10355057 0.0782261
0002f0 e1 cf de bd 4e 6d b0 3d 90 c9 b1 3d d3 82 de bb
       -0.108794935 0.08614598 0.08681023 -0.006790498
000300 d2 e6 e7 bb b6 bc d5 3d 67 88 03 bd 73 5f b7 bc
       -0.0070770765 0.104363844 -0.032112505 -0.02238438
000310 b3 6e eb bd 65 9f ee bd 62 39 39 bd b4 dc f7 bc
       -0.114957236 -0.11651496 -0.04522074 -0.030256607
000320 98 e7 2a 3d f0 92 d8 bd a4 bb f9 bd 6e 65 04 3d
       0.04172477 -0.10574901 -0.12193993 0.032323293
000330 dc bf 3c bd a6 ec 57 3d e7 aa 09 bd 96 4b a6 3d
       -0.04608141 0.05271592 -0.03361025 0.081198856
000340 59 10 a7 ba fc d8 43 3d e6 2e 67 3d 25 f5 9b 3d
       -0.0012745961 0.047814354 0.05644121 0.07615117
000350 04 85 90 bd 51 63 84 3d 80 60 fd bd ba 4a 9d bd
       -0.07056621 0.064642556 -0.123719215 -0.076802686
000360 31 6b a8 bd 4e 0c 34 bd d7 3a f4 bd f6 ca 37 bd
       -0.0822357 -0.043957047 -0.11925285 -0.044871293
000370 50 46 c6 3c 4b f0 35 bd c7 38 36 3d 12 b2 9a bd
       0.02420345 -0.044418614 0.04448774 -0.075534955
000380 07 7f ba 3d d1 db f0 bd 96 ee ac bd 1a c5 dd bd
       0.0910626 -0.11760677 -0.08443944 -0.1082861
000390 e7 b8 35 3d ba 66 92 bd fd 7e de 3c be d1 90 bd
       0.04436579 -0.071485 0.027160162 -0.07071255
0003a0 21 4b 07 bd f9 bf 4b 3d c5 2c 98 3d 8c ac fb bd
       -0.033030633 0.049743626 0.07430414 -0.1228877
0003b0 41 22 2c 3d 17 e6 45 3d b8 92 90 bc 23 40 c6 3c
       0.042024855 0.048315134 -0.017648086 0.024200505
0003c0 68 ee a9 bd 7f 18 2e bd ae 62 5e bc 6e 22 54 bd
       -0.082974255 -0.04250383 -0.013573332 -0.051790647
0003d0 7f c6 44 3d 5e ca e8 3d cc 0a 29 bd a5 65 98 bd
       0.048040863 0.113667235 -0.041270062 -0.07441262
0003e0 ab 98 b3 3d 32 a8 d1 3c 92 99 d8 3d 21 12 ea bd
       0.087693535 0.025592897 0.10576166 -0.11429239
0003f0 1b 7b c4 3d 0c a9 b0 3d d2 7e 2f 3d 73 c1 8d 3d
       0.09593793 0.08625993 0.042845555 0.06921663

net.2.bias f4 [20]
000000 23 fb 21 3e d2 67 a3 3d 5b ce 26 3e a6 43 0a 3d
       0.15818457 0.079787865 0.16289656 0.03375592
000010 de d7 4c 3d 73 58 00 be 36 f6 01 3f 7c 22 f1 bd
       0.050010554 -0.1253374 0.50766313 -0.117741555
000020 31 c4 21 bd d0 1a e8 bc ee 11 9d 3e 45 0b 40 40
       -0.039493743 -0.028333098 0.30677742 3.0006878
000030 91 b5 c3 3f 38 42 74 3f ef 89 89 3f a0 bb 88 3f
       1.5289785 0.9541354 1.0745219 1.0682259
000040 93 ae 00 40 ef 1e 5c 3f ed c2 13 be 90 58 f9 3f
       2.0106552 0.859847 -0.14429827 1.9480152

net.4.weight f4 [1, 20]
000000 b5 b2 3c be f7 d8 8a 3d bc 4f 19 be e4 64 ed 3c
       -0.18427546 0.06779664 -0.14971823 0.028978772
000010 0a 03 1c 3e ce 81 13 bc a7 06 35 bf 5e 8e bb bb
       0.15235534 -0.009003116 -0.70713276 -0.0057237586
000020 88 4f 3c 3d 19 5a 8d 3e 18 90 75 be 63 1b 85 c0
       0.045974284 0.27607802 -0.23980749 -4.159593
000030 2c d1 0d c0 4f 8f b2 bf a9 f8 b0 bf b6 72 d5 bf
       -2.2158918 -1.3949984 -1.3825885 -1.6675632
000040 98 1e 3f c0 f2 eb 9b bf 66 36 d7 3e 17 d3 3a c0
       -2.9862423 -1.218138 0.4203369 -2.919134
